ANN - Classification/model.pt (torch, 16436 bytes, 6 tensors)

fc1.weight f4 [50, 16]
-0.06735038 -0.032869864 0.21150431 -0.061364487 -0.029213354 0.19405973 -0.13738726 0.14422783
0.118980095 0.11060641 0.12963414 0.10831031 0.24553984 0.01147446 -0.10231803 0.33199385
0.14679265 -0.08891714 -0.18828636 -0.1061466 -0.27079064 0.08651122 -0.09197195 0.07206023
0.0101022385 -0.11239926 -0.21376309 -0.017628863 -0.2294822 -0.1522701 0.06456861 -0.25139615
-0.046042982 -0.030453546 -0.06064262 0.14818667 0.054381765 -0.15899248 0.16486849 -0.104659386
0.039675623 0.050742637 -0.07996193 -0.2624674 0.12846476 -0.13393795 0.10591144 -0.2514085
-0.006797286 0.16972882 -0.11555308 0.067241915 0.06261718 -0.11954727 -0.036947187 -0.13439356
0.054030918 0.04646419 0.15835781 0.028483035 -0.018399082 -0.038000636 -0.026802985 0.29401752
0.022311417 -0.29151228 0.013964366 -0.08731381 0.11740274 -0.12858878 0.18374385 0.052418184
-0.2533627 -0.017732328 -0.12018573 0.08757824 -0.2902235 -0.075776726 0.16499639 0.0027189164
0.14717752 0.12731911 0.20010024 0.1782626 0.14827996 0.112184934 0.24243054 -0.040573336
0.137728 0.09247228 0.03209991 0.26990214 0.13093744 -0.11713611 0.25929812 0.021073805
0.031435292 -0.17249015 0.04225923 -0.09176946 0.00028388618 0.16897933 0.058172975 0.1644434
-0.23156588 -0.1998609 -0.1373657 -0.034653712 -0.041797996 -0.07403676 0.06068643 0.2924824
-0.23036009 -0.14212191 0.10686734 -0.13606274 -0.15367362 -0.28971207 -0.13539688 -0.21759184
0.09830164 -0.17982595 -0.13410816 -0.00019447826 0.01627981 0.117591254 -0.13263585 -0.30418068
0.25010794 -0.007976887 0.07929852 -0.11098582 -0.08207537 0.02037025 -0.031065458 -0.039037712
0.07510235 0.050655074 -0.047277555 0.050248004 0.24890994 0.19721754 0.29303274 0.25503847
0.057825875 0.1120317 -0.3118613 -0.27751395 0.037887346 0.110787354 -0.26450962 0.02996866
-0.10328142 -0.074848615 0.12159188 -0.25162783 0.013730531 0.08380057 0.06359651 -0.2852166
-0.018149003 -0.27683836 -0.20456395 -0.20548522 0.07269968 -0.0007127127 0.12313587 0.052943684
-0.07208227 0.14739083 -0.23739137 -0.17125274 -0.15668616 -0.014311049 -0.15348017 -0.30789873
0.19916645 0.2596767 0.22021478 0.17877097 -0.028940126 -0.023109185 -0.19894035 0.03568525
0.23336795 0.1707589 0.28267452 -0.14559788 -0.15680361 0.14697553 0.2691333 -0.022328015
-0.016525146 0.109766975 0.12327219 0.1036984 -0.11761493 0.06111053 0.12694642 -0.0022262232
-0.23021677 -0.19808443 -0.013818898 0.20023367 0.1205535 0.17190394 0.0509179 0.25801262
0.012619255 0.08512161 0.09863479 -0.2570686 -0.2680075 -0.18467431 -0.034777157 -0.120324016
-0.24909775 -0.036987025 0.102525085 -0.23029527 -0.008570807 -0.16129199 0.08102257 -0.142528
0.17452912 0.121875025 -0.21162392 0.2345127 -0.15462224 0.0541869 0.18639885 0.16925892
-0.10356948 0.06928445 -0.09366771 0.03487316 -0.13421075 0.18316968 0.20711172 0.2117264
0.17459844 -0.22774562 -0.21399038 -0.031691674 0.03055842 -0.22593194 -0.31031767 -0.030996956
-0.04645782 0.07414075 -0.05315137 -0.21666558 -0.13526765 -0.13840899 -0.301642 0.08124585
00000000: ffee 89bd 8da2 06bd 9694 583e 5459 7bbd
00000010: d850 efbc 98b7 463e 3faf 0cbe 76b0 133e
00000020: d6ab f33d 9d85 e23d d0be 043e ccd1 dd3d
00000030: cc6e 7b3e 60ff 3b3c 1e8c d1bd 19fb a93e
00000040: d050 163e 311a b6bd 24ce 40be 6363 d9bd
00000050: 12a5 8abe cb2c b13d ca5b bcbd 5094 933d
00000060: dc83 253c 9531 e6bd b6e4 5abe 686a 90bc
00000070: 62fd 6abe b1ec 1bbe 8c3c 843d ffb6 80be
00000080: 9197 3cbd b779 f9bc 6564 78bd 3fbe 173e
00000090: 6abf 5e3d edce 22be 49d3 283e a957 d6bd
000000a0: e882 223d 83d7 4f3d 15c3 a3bd 2162 86be
000000b0: 448c 033e 0827 09be 19e8 d83d 9db8 80be
000000c0: c5bb debb 64cd 2d3e 18a7 ecbd 21b6 893d
000000d0: 703d 803d 33d5 f4bd ef55 17bd 779e 09be
000000e0: 864f 5d3d 3c51 3e3d 8d28 223e 4155 e93c
000000f0: acb9 96bc 8ea6 1bbd ef91 dbbc 7789 963e
00000100: 6fc6 b63c 1941 95be ccca 643c 95d1 b2bd
00000110: d970 f03d c7ac 03be 5927 3c3e 73b4 563d
00000120: c1b8 81be 6343 91bc f023 f6bd 385c b33d
00000130: 2d98 94be d430 9bbd d0f4 283e d92f 323b
00000140: b4b5 163e f15f 023e 14e7 4c3e 798a 363e
00000150: b4d6 173e 37c1 e53d b63f 783e 3a30 26bd
00000160: 9208 0d3e 1b62 bd3d 327b 033d 9d30 8a3e
00000170: 7714 063e 0fe5 efbd b9c2 843e f9a2 ac3c
00000180: 4bc2 003d 42a1 30be 0418 2d3d a0f1 bbbd
00000190: 8fd6 9439 eb08 2d3e c946 6e3d da63 283e
000001a0: 9b1f 6dbe 56a8 4cbe 98a9 0cbe 0df1 0dbd
000001b0: 6034 2bbd 96a0 97bd 5692 783d 41c0 953e
000001c0: 84e3 6bbe 6888 11be 44dd da3d 0854 0bbe
000001d0: 9e5c 1dbe 2455 94be 7ba5 0abe 65d0 5ebe
000001e0: 5f52 c93d 4b24 38be a653 09be dcec 4bb9
000001f0: 3c5d 853c afd3 f03d b1d1 07be 92bd 9bbe
00000200: 260e 803e 7db1 02bc 4367 a23d 894c e3bd
00000210: 2217 a8bd 83df a63c fd7c febc 02e6 1fbd
00000220: 43cf 993d b27b 4f3d 1ca6 41bd dad0 4d3d
00000230: 3fe2 7e3e 65f3 493e 6308 963e 6794 823e
00000240: d3da 6c3d e070 e53d 49ac 9fbe 4f16 8ebe
00000250: c32f 1b3d 7be4 e23d ce6d 87be d680 f53c
00000260: 3685 d3bd 3b4a 99bd 2a05 f93d 5dd5 80be
00000270: 05f6 603c a29f ab3d e33e 823d e907 92be
00000280: 38ad 94bc c2bd 8dbe 3679 51be b86a 52be
00000290: 92e3 943d 57d5 3aba a92e fc3d 7adb 583d
000002a0: df9f 93bd 9fed 163e b916 73be e15c 2fbe
000002b0: 5672 20be e478 6abc e829 1dbe e7a4 9dbe
000002c0: 4af2 4b3e 58f4 843e fc7f 613e bd0f 373e
000002d0: d813 edbc 794f bdbc 05b7 4bbe b22a 123d
000002e0: 02f8 6e3e 6cdb 2e3e b7ba 903e 9c17 15be
000002f0: 2091 20be c180 163e d7cb 893e 3ee9 b6bc
00000300: be5f 87bc 82cd e03d 2176 fc3d d45f d43d
00000310: 19e0 f0bd 094f 7a3d 3efe 013e d4e5 11bb
00000320: f2bd 6bbe a5d6 4abe a968 62bc 0e0a 4d3e
00000330: c1e4 f63d 9607 303e 4a8f 503d 3b1a 843e
00000340: fec0 4e3c 3d54 ae3d 0901 ca3d 7f9e 83be
00000350: 4738 89be 431b 3dbe 7e72 0ebd 706c f6bd
00000360: 7b13 7fbe b57f 17bd acf8 d13d 86d2 6bbe
00000370: 926c 0cbc ba29 25be 29ef a53d dcf2 11be
00000380: c3b7 323e 9d99 f93d f1b3 58be 1924 703e
00000390: 4b55 1ebe 15f3 5d3d 57df 3e3e 3652 2d3e
000003a0: 3c1c d4bd 01e5 8d3d dbd4 bfbd 29d7 0e3d
000003b0: 8b6e 09be d590 3b3e 1815 543e cece 583e
000003c0: efc9 323e 2636 69be 4b20 5bbe 21cf 01bd
000003d0: a755 fa3c b45a 67be f5e1 9ebe 54ed fdbc
000003e0: 8e4a 3ebd 1bd7 973d 40b5 59bd 95dd 5dbe
000003f0: 9a83 0abe 16bb 0dbe d270 9abe 3964 a63d

fc1.bias f4 [50]
0.19369987 0.063278325 0.066513956 0.34390086 0.3068048 -0.052830216 -0.071057074 0.2762688
0.09752832 -0.02297508 -0.042021595 0.031474832 0.06524681 -0.14830671 -0.092053436 -0.041857466
-0.105075024 0.18361849 0.094978884 0.00028558384 0.023832673 -0.056475133 0.25552237 0.11406023
0.05886525 -0.04090771 0.15206453 -0.055697743 -0.12346041 0.006083184 0.27038088 0.28335202
0.1669301 0.2169107 0.18585864 0.039578717 0.1094471 0.15334298 0.2894735 0.24843103
0.07649765 -0.12078825 -0.061474014 0.23810369 0.051162913 0.13405186 0.24516484 -0.01196435
-0.00861211 0.2710451
00000000: 4259 463e 1198 813d 7838 883d c613 b03e
00000010: 8515 9d3e 7f64 58bd 5f86 91bd 1b73 8d3e
00000020: eebc c73d 3c36 bcbc d61e 2cbd c1eb 003d
00000030: 1fa0 853d b7dd 17be 8386 bcbd bc72 2bbd
00000040: 9331 d7bd 7c06 3c3e 4a84 c23d 6aba 9539
00000050: bd3c c33c 7852 67bd d4d3 823e 6998 e93d
00000060: b01c 713d d88e 27bd ceb6 1b3e 5123 64bd
00000070: d0d8 fcbd 7255 c73b 5d6f 8a3e 8413 913e
00000080: b9ef 2a3e d71d 5e3e ba51 3e3e 4b1d 223d
00000090: cd25 e03d f105 1d3e df35 943e b464 7e3e
000000a0: cdaa 9c3d d45f f7bd 2dcc 7bbd 74d1 733e
000000b0: 3490 513d e444 093e 7e0c 7b3e 1f06 44bc
000000c0: cf19 0dbc 6cc6 8a3e

fc2.weight f4 [50, 50]
-0.030039709 0.06808197 0.12818289 -0.10782164 0.017242167 0.06291962 -0.13174956 -0.028455384
-0.04477268 0.059862006 0.03812727 -0.03154775 -0.15439318 0.007865374 -0.07308139 0.12600303
-0.014018392 0.13326631 0.03510537 0.1912264 -0.10182054 0.20061821 -0.018389435 0.18750697
-0.078939185 0.070941724 -0.06620314 -0.15221627 0.17836674 -0.15838419 -0.10638154 0.031369857
0.11367778 0.041241124 -0.11521112 0.1905438 0.098132245 0.039237544 0.0257553 -0.04780261
0.1371714 -0.045870442 -0.061889816 -0.0770813 -0.025630077 0.07758022 0.025530437 0.21266541
-0.052893125 -0.0640974 0.16279821 -0.20237271 0.11832024 0.14844488 -0.053296443 0.04291731
0.021436255 -0.0457797 0.025644999 -0.09624881 -0.046791725 0.16647345 0.008409839 -0.035603326
0.16184019 0.15038411 0.14922519 0.1574483 0.010585953 0.04379567 -0.06408394 -0.094272085
-0.03963364 0.062159907 0.052271795 0.115666024 0.14709385 0.03489667 -0.077193506 0.040799208
0.108954154 -0.036164783 -0.03789031 -0.033514068 0.08895763 0.10443836 -0.12104376 -0.17438054
-0.06659962 0.08539954 0.019613184 0.1853516 0.16424838 -0.0007862509 -0.05864998 0.13491109
0.104983084 -0.0769008 0.10729485 0.17992136 -0.15984887 0.06589993 0.17012325 -0.115215085
0.18439533 -0.1298067 -0.044881545 0.14069954 -0.120836556 0.1413661 0.20197831 0.014839718
0.0005457073 0.14860445 0.031010179 0.009420422 0.19422355 0.021772742 0.10344409 0.00089639233
0.028078822 0.11581737 -0.22617769 0.05215873 0.06034173 0.0652641 0.13591982 -0.10345122
0.042934787 0.039085694 -0.12665232 -0.025989989 0.1520815 -0.026677972 -0.017567178 0.030546026
0.058875363 -0.051112976 0.057113823 -0.12087917 0.06726784 -0.16199361 -0.140567 -0.08589555
0.17143232 0.12195857 -0.14591601 0.1253784 -0.03439742 -0.045415185 -0.007723276 0.18787602
0.025683971 0.009345022 0.19307968 -0.13617013 -0.09148783 0.095461056 -0.008577818 0.13593963
0.12095387 0.023874348 -0.06343487 0.12221526 0.043011744 0.12459258 0.16241375 0.102957726
0.2123788 0.0007636859 -0.1194661 0.14122829 -0.22300157 0.03146128 -0.111261375 -0.22780895
-0.092732005 -0.09800323 0.13845481 -0.13204765 -0.11877663 0.1569705 0.088435575 0.16809033
-0.061832454 0.1738796 0.08126974 0.01652043 0.14697354 -0.16619542 0.12460207 -0.14118804
-0.0022647495 -0.030415848 0.057621554 0.16400999 -0.069615744 0.019499274 -0.022573173 -0.01089549
-0.01926777 -0.052251004 0.0096754255 -0.04884178 0.1942028 -0.098445244 0.037494168 -0.048664216
0.045732517 0.1117862 0.12644431 0.12674882 -0.017012106 0.11529929 -0.015764808 -0.0018048291
0.02520134 0.07456588 0.16383421 0.042341307 -0.10032273 0.03303433 -0.05846864 0.046271365
-0.10761899 -0.13900213 0.08484231 -0.1676247 0.0618291 -0.050784662 -0.14669815 0.11729821
-0.009977527 0.022770762 -0.088866875 -0.04697261 0.1951929 0.18555015 -0.017330755 -0.19792268
0.17681193 -0.049720455 -0.024276657 -0.22362795 0.20303147 0.046569504 0.039937712 0.13476169
0.020233227 -0.19438614 0.050218936 -0.03854507 -0.13642478 0.14558592 0.0068725827 0.13799621
00000000: d615 f6bc 8f6e 8b3d 6042 033e 98d1 dcbd
00000010: 723f 8d3c 00dc 803d 5be9 06be 441b e9bc
00000020: 8f63 37bd dd31 753d 572b 1c3d 3738 01bd
00000030: 3f19 1ebe c5dd 003c b2ab 95bd f006 013e
00000040: 66ad 65bc f776 083e a6ca 0f3d dad0 433e
00000050: 4a87 d0bd dc6e 4d3e 71a5 96bc d401 403e
00000060: deaa a1bd e549 913d 8395 87bd 95de 1bbe
00000070: c5a5 363e 772f 22be 91de d9bd ae7d 003d
00000080: e5cf e83d 74ec 283d cff3 ebbd ea1d 433e
00000090: 8ff9 c83d 8cb7 203d c7fc d23c abcc 43bd
000000a0: a976 0c3e a5e2 3bbd 2d80 7dbd cddc 9dbd
000000b0: 2bf6 d1bc 61e2 9e3d 3525 d13c f6c4 593e
000000c0: 76a6 58bd 7f45 83bd 93b4 263e cb3a 4fbe
000000d0: e251 f23d ef01 183e 5f4d 5abd 10ca 2f3d
000000e0: 169b af3c 7f83 3bbd 7615 d23c 191e c5bd
000000f0: aea8 3fbd 0478 2a3e 6cc9 093c cbd4 11bd
00000100: 6fb9 253e 4bfe 193e 7dce 183e 213a 213e
00000110: b470 2d3c 1763 333d 713e 83bd b911 c1bd
00000120: e256 22bd 639b 7e3d f31a 563d 4fe2 ec3d
00000130: c59f 163e d0ef 0e3d a117 9ebd 121d 273d
00000140: 5b23 df3d 8621 14bd df32 1bbd 0c46 09bd
00000150: 6b2f b63d c7e3 d53d cae5 f7bd d090 32be
00000160: 6265 88bd f4e5 ae3d d4ab a03c cfcc 3d3e
00000170: ba30 283e 681c 4eba f63a 70bd 2226 0a3e
00000180: 5f01 d73d 2b7e 9dbd 67bd db3d 4e3d 383e
00000190: 6caf 23be 8bf6 863d ca34 2e3e e3f5 ebbd
000001a0: 21d2 3c3e 0cec 04be b6d5 37bd 8a13 103e
000001b0: 2879 f7bd 46c2 103e 67d3 4e3e 4a22 733c
000001c0: cc0d 0f3a c42b 183e 0f09 fe3c 1d58 1a3c
000001d0: 8ae2 463e c05c b23c 7fda d33d dffb 6a3a
000001e0: 8f05 e63c a831 ed3d 209b 67be 64a4 553d
000001f0: e428 773d 2fa9 853d 912e 0b3e 3cde d3bd
00000200: 63dc 2f3d 5218 203d 25b1 01be f5e8 d4bc
00000210: 41bb 1b3e c38b dabc 0be9 8fbc a93b fa3c
00000220: 4b27 713d d75b 51bd 2ff0 693d 808f f7bd
00000230: b9c3 893d a7e1 25be ccf0 0fbe 02ea afbd
00000240: f48b 2f3e 6ac5 f93d 026b 15be 3263 003e
00000250: 4fe4 0cbd 4605 3abd 8913 fdbb 9262 403e
00000260: 3167 d23c dd1b 193c aeb6 453e 2f70 0bbe
00000270: f95d bbbd 1681 c33d fa89 0cbc c233 0b3e
00000280: aab6 f73d 2394 c33c 24ea 81bd ff4b fa3d
00000290: 152d 303d 652a ff3d ca4f 263e 80db d23d
000002a0: d479 593e 1832 483a a5aa f4bd 269e 103e
000002b0: 865a 64be 8bdd 003d 01dd e3bd c046 69be
000002c0: 47ea bdbd ebb5 c8bd 19c7 0d3e 8037 07be
000002d0: 2941 f3bd e0bc 203e b61d b53d df1f 2c3e
000002e0: 0744 7dbd 7e0d 323e c070 a63d da55 873c
000002f0: 3b80 163e 222f 2abe 5f2f ff3d 9993 10be
00000300: 316c 14bb a82a f9bc 9404 6c3d 3cf2 273e
00000310: b392 8ebd f1bc 9f3c 60eb b8bc ff82 32bc
00000320: 71d7 9dbc 2605 56bd ad85 1e3c 510e 48bd
00000330: 19dd 463e a99d c9bd 7c93 193d 2154 47bd
00000340: 0552 3b3d 2af0 e43d 9e7a 013e 71ca 013e
00000350: f95c 8bbc 0922 ec3d 3325 81bc 0490 ecba
00000360: 0a73 ce3c ffb5 983d 28c4 273e 146e 2d3d
00000370: 0176 cdbd 014f 073d d07c 6fbd 0b87 3d3d
00000380: 5867 dcbd 9356 0ebe cec1 ad3d cfa5 2bbe
00000390: 8340 7d3d 9403 50bd 0a38 16be 0b3a f03d
000003a0: c878 23bc c089 ba3c d6ff b5bd 5a66 40bd
000003b0: a6e0 473e dc00 3e3e 3af9 8dbc 3eac 4abe
000003c0: 300e 353e ada7 4bbd d7df c6bc bafe 64be
000003d0: 7be7 4f3e aabf 3e3d ba95 233d f8fe 093e
000003e0: 27c0 a53c 290d 47be 5fb2 4d3d 6fe1 1dbd
000003f0: f0b2 0bbe 7a14 153e 6733 e13b e14e 0d3e

fc2.bias f4 [50]
0.027686398 -0.024419338 0.07101613 0.016171617 0.19263093 0.09611516 0.09418223 0.15726732
0.13133487 0.21608372 0.078769796 -0.057833087 0.022088204 0.0619701 0.055532675 0.17005552
-0.06735011 0.004692935 0.008150821 0.016016554 0.04456993 0.03557746 0.05487735 -0.02988258
-0.04970339 0.05462695 0.077495195 0.04165869 -0.0020588427 -0.033704057 -0.025182996 0.02195778
0.08569939 0.114605546 -0.0051444834 0.11505958 0.14910704 0.18247022 -0.014059525 0.18072136
0.047951937 -0.08885178 -0.018284028 0.15553151 0.06515819 -0.017859023 0.20118994 0.020277826
0.018064527 0.16619705
00000000: 96ce e23c 100b c8bc e870 913d 577a 843c
00000010: 0b41 453e 06d8 c43d 9de2 c03d af0a 213e
00000020: a67c 063e 0d45 5d3e 0f52 a13d 63e2 6cbd
00000030: 52f2 b43c 5cd4 7d3d 3b76 633d 0923 2e3e
00000040: dbee 89bd 31c7 993b 058b 053c 2635 833c
00000050: f58e 363d acb9 113d 12c7 603d 50cc f4bc
00000060: c895 4bbd 82c0 5f3d cdb5 9e3d 4da2 2a3d
00000070: a6ed 06bb 440d 0abd 924c cebc cde0 b33c
00000080: 2983 af3d 50b6 ea3d 0e93 a8bb 5ba4 eb3d
00000090: 84af 183e 79d9 3a3e ec59 66bc 050f 393e
000000a0: 4069 443d ecf7 b5bd 63c8 95bc a743 1f3e
000000b0: a871 853d 164d 92bc bc04 4e3e af1d a63c
000000c0: 0ffc 933c 8f2f 2a3e

out.weight f4 [2, 50]
0.17333321 -0.20955546 0.12047077 0.010533004 0.04604812 -0.07883928 0.05940978 -0.18576646
-0.1998431 0.05926062 -0.16277885 0.12710983 -0.098626755 0.0786021 -0.18637647 0.056067176
-0.23262537 -0.24172452 0.07541095 0.13429594 -0.21391109 0.077009976 -0.13397945 -0.1879951
-0.02064765 0.17966071 0.122604474 0.124072015 0.1677907 0.19287239 -0.1527636 0.19873372
-0.05373172 -0.00095308106 -0.21148156 0.21160983 0.19608633 -0.010101576 0.20998496 0.07825933
-0.22021702 -0.030932516 0.012301279 -0.1318576 -0.22055958 -0.08235378 -0.021291018 0.19502199
-0.06841272 -0.16406506 -0.20177983 0.22757527 -0.20310329 -0.17585139 -0.1874854 0.23838355
-0.19949278 0.08471771 0.04472648 -0.13362019 0.22520912 -0.11158991 -0.046461146 -0.21706451
0.026192918 -0.21500659 0.22148266 0.1929444 -0.13601942 -0.12508017 0.14134987 -0.13517776
0.23498611 0.19810668 0.022717193 -0.15107961 -0.14251556 -0.073453315 -0.06250317 -0.047535826
0.10867452 -0.088670954 0.19365384 0.21147777 0.067161135 0.05235173 -0.050794765 0.2177764
-0.055217948 -0.11463825 0.08092791 0.059558764 0.23126976 0.11134353 0.07187411 -0.034132212
-0.19149576 -0.09968324 0.1765275 0.15094718
00000000: 437e 313e b595 56be 61b9 f63d 9f92 2c3c
00000010: f49c 3c3d 7d76 a1bd ab57 733d 9039 3ebe
00000020: aba3 4cbe 44bb 723d 80af 26be 1429 023e
00000030: d3fc c9bd 23fa a03d 79d9 3ebe b2a6 653d
00000040: 5835 6ebe a286 77be 0e71 9a3d e084 093e
00000050: 820b 5bbe 68b7 9d3d e931 09be ca81 40be
00000060: 4325 a9bc faf8 373e 0e18 fb3d 7819 fe3d
00000070: 53d1 2b3e 5780 453e 106e 1cbe da80 4b3e
00000080: cb15 5cbd 30d8 79ba 9f8e 58be 3fb0 583e
00000090: dbca 483e 1581 25bc 4c06 573e 6d46 a03d
000000a0: 9280 61be 3066 fdbc 4e8b 493c ae05 07be
000000b0: 5fda 61be 19a9 a8bd 806a aebc d8b3 473e
000000c0: f81b 8cbd ac00 28be 5f9f 4ebe 7e09 693e
000000d0: 4ffa 4fbe 6312 34be 2cfc 3fbe d11a 743e
000000e0: d647 4cbe 7b80 ad3d 1d33 373d bbd3 08be
000000f0: 389d 663e 4089 e4bd 0b4e 3ebd 2946 5ebe
00000100: 8892 d63c b02a 5cbe 5acc 623e 3793 453e
00000110: ad48 0bbe 0415 00be 05be 103e 0a6c 0abe
00000120: 33a0 703e 7adc 4a3e 6819 ba3c 9db4 1abe
00000130: 99ef 11be b16e 96bd a901 80bd edb4 42bd
00000140: bf90 de3d 1e99 b5bd 314d 463e a18d 583e
00000150: c78b 893d c56e 563d 2c0e 50bd c700 5f3e
00000160: 372c 62bd 75c7 eabd 88bd a53d e4f3 733d
00000170: fbd1 6c3e 1408 e43d bc32 933d 38ce 0bbd
00000180: 7717 44be ba26 ccbd a0c3 343e e691 1a3e

out.bias f4 [2]
-0.04097662 0.06464664
00000000: 1ad7 27bd 7565 843d
